models/checkpoint.pth (torch, 148514 bytes, 59 tensors)

pdm_blocks.0.layer_norm.weight f4 [32]
1.0 1.0 1.0 1.0 1.0 1.0 1.0 1.0
1.0 1.0 1.0 1.0 1.0 1.0 1.0 1.0
1.0 1.0 1.0 1.0 1.0 1.0 1.0 1.0
1.0 1.0 1.0 1.0 1.0 1.0 1.0 1.0
00000000: 0000 803f 0000 803f 0000 803f 0000 803f
00000010: 0000 803f 0000 803f 0000 803f 0000 803f
00000020: 0000 803f 0000 803f 0000 803f 0000 803f
00000030: 0000 803f 0000 803f 0000 803f 0000 803f
00000040: 0000 803f 0000 803f 0000 803f 0000 803f
00000050: 0000 803f 0000 803f 0000 803f 0000 803f
00000060: 0000 803f 0000 803f 0000 803f 0000 803f
00000070: 0000 803f 0000 803f 0000 803f 0000 803f

pdm_blocks.0.layer_norm.bias f4 [32]
0.0 0.0 0.0 0.0 0.0 0.0 0.0 0.0
0.0 0.0 0.0 0.0 0.0 0.0 0.0 0.0
0.0 0.0 0.0 0.0 0.0 0.0 0.0 0.0
0.0 0.0 0.0 0.0 0.0 0.0 0.0 0.0
00000000: 0000 0000 0000 0000 0000 0000 0000 0000
00000010: 0000 0000 0000 0000 0000 0000 0000 0000
00000020: 0000 0000 0000 0000 0000 0000 0000 0000
00000030: 0000 0000 0000 0000 0000 0000 0000 0000
00000040: 0000 0000 0000 0000 0000 0000 0000 0000
00000050: 0000 0000 0000 0000 0000 0000 0000 0000
00000060: 0000 0000 0000 0000 0000 0000 0000 0000
00000070: 0000 0000 0000 0000 0000 0000 0000 0000

pdm_blocks.0.mixing_multi_scale_season.down_sampling_layers.0.0.weight f4 [24, 48]
-0.032575633 -0.053732254 0.15139319 0.061686695 0.105689466 0.11315714 -0.07005703 -0.10352685
0.041999485 -0.13064793 0.14576736 0.04583359 -0.09074044 0.011059798 -0.11820547 0.040180415
0.22798006 -0.082049295 -0.01849122 0.13787182 -0.26966965 -0.06425403 -0.08345931 0.0347841
0.08601645 0.16582909 0.022885632 -0.07077947 -0.13954219 -0.07945387 -0.12095624 -0.14604738
0.10633261 0.17156884 -0.026697904 -0.0099757 -0.0048544984 -0.1615017 0.062290553 -0.058718476
-0.13430932 -0.18820094 -0.061286177 0.012467001 0.016139016 0.017170634 0.14467597 0.1198768
-0.023714717 -0.060235072 0.15376149 0.083521344 0.12102421 0.08749848 0.018335842 0.07778862
-0.042465888 0.09246357 -0.0966861 0.18466431 0.09475606 -0.15389097 0.051592875 0.11900121
0.17715797 -0.0019274451 0.035669964 -0.07148486 0.055030193 0.1364873 -0.26337472 0.11621779
-0.16895702 0.13487458 0.008197105 -0.0275622 0.07505431 -0.19658896 -0.027712367 -0.18338536
0.06116174 -0.084626555 -0.05271931 0.07960877 -0.005920228 -0.025703182 -0.10899942 0.15242681
-0.03557212 -0.10855325 0.0022525995 -0.14513306 0.12962672 -0.03954355 0.08005882 0.09571097
-0.18358432 -0.0043035387 -0.079120494 -0.08987982 -0.0028491952 -0.004284032 0.050272465 0.124876246
-0.02927078 -0.082318425 0.03642419 0.20659372 -0.1921979 0.029688848 0.08406069 -0.07654289
-0.06716692 -0.09032803 -0.02673203 -0.044739544 0.075949684 0.12962109 -0.07383435 0.048848618
0.13872723 0.25244445 -0.18102627 0.13168985 0.09987563 -0.13672988 -0.09559615 0.02678426
-0.07584903 -0.14786582 0.06612543 0.10853968 -0.12183356 -0.20621796 0.013117539 0.16884755
-0.115485154 -0.13020903 0.13718411 -0.015631538 -0.20601285 -0.12552801 0.18912792 0.122219406
0.010002857 0.007925176 -0.11079811 0.13391352 0.14214547 -0.14600778 -0.13506654 -0.017264474
-0.020062957 0.013891695 -0.13236491 -0.18457648 0.06139498 0.10112155 0.090123504 0.042523067
-0.09825894 0.14636733 0.04655352 -0.12895703 0.050332587 0.14086832 -0.039884534 -0.0872029
-0.22113132 -0.2555453 0.017404525 0.10923245 0.04663992 -0.047225714 -0.10938298 -0.005490745
-0.23117048 -0.08780136 -0.03888697 0.08277699 0.045696575 -0.00694218 -0.042628616 -0.0047427453
0.045443274 0.07073647 -0.012971933 0.111494586 0.1825667 0.120659426 -0.026952727 -0.19108951
0.06292964 0.033875637 -0.03826172 -0.041016165 0.16226904 -0.11431793 -0.0010759579 0.122014664
-0.11073604 -0.06270156 -0.009239239 -0.06340889 -0.055826254 0.07613031 0.08023361 -0.10827534
-0.14506203 -0.092208646 -0.11122771 -0.13987613 -0.065659694 -0.074241504 -0.082432106 0.13114627
0.100223266 -0.005906825 -0.06471685 0.108925864 0.07370425 -0.022329051 0.22773014 0.2202369
0.072126396 -0.09990359 -0.1747837 0.055693194 0.032614533 -0.037844997 0.06465893 0.12662594
-0.015827455 -0.10267704 -0.1865781 -0.08093784 -0.0884918 -0.11828421 -0.04587084 -0.03043079
-0.07162044 0.011862466 -0.10023416 -0.08368662 0.18981221 0.046735737 0.04987058 0.09548094
-0.0809281 -0.03741285 -0.10349173 0.007739934 0.027852306 -0.098851345 0.00079032505 -0.027157642
00000000: 076e 05bd 5a16 5cbd d106 1b3e 30ab 7c3d
00000010: b873 d83d eebe e73d 0f7a 8fbd e305 d4bd
00000020: a707 2c3d 92c8 05be 0a44 153e 01bc 3b3d
00000030: 20d6 b9bd 2834 353c b615 f2bd 3894 243d
00000040: 9b73 693e 7609 a8bd e67a 97bc 452e 0d3e
00000050: 2412 8abe 9e97 83bd b7ec aabd c679 0e3d
00000060: 6429 b03d 1acf 293e a67a bb3c d4f4 90bd
00000070: 26e4 0ebe b6b8 a2bd e8b7 f7bd 728d 15be
00000080: e9c4 d93d beaf 2f3e 90b5 dabc 1e71 23bc
00000090: 7c12 9fbb b460 25be 6124 7f3d c982 70bd
000000a0: 6288 09be bfb7 40be 3707 7bbd 6442 4c3c
000000b0: f835 843c 6ea9 8c3c f025 143e f881 f53d
000000c0: 5e45 c2bc 0db9 76bd a773 1d3e 3d0d ab3d
000000d0: 8adb f73d 6732 b33d 0c35 963c a44f 9f3d
000000e0: b6f0 2dbd 8a5d bd3d 5d03 c6bd a418 3d3e
000000f0: 770f c23d 9895 1dbe 0d53 533d e8b6 f33d
00000100: e668 353e 53a2 fcba ab1a 123d a766 92bd
00000110: 5767 613d 54c3 0b3e 0dd9 86be 9803 ee3d
00000120: 1203 2dbe 901c 0a3e 264d 063c 1fca e1bc
00000130: 13b6 993d 9e4e 49be 0c05 e3bc 5fc9 3bbe
00000140: bc84 7a3d b050 adbd 34f0 57bd ec09 a33d
00000150: 79fe c1bb 7b8f d2bc 173b dfbd c615 1c3e
00000160: 12b4 11bd 2b51 debd 59a0 133b c39d 14be
00000170: debc 043e 6bf8 21bd e1f5 a33d 1d04 c43d
00000180: 87fd 3bbe b304 8dbb ed09 a2bd e912 b8bd
00000190: 90b9 3abb 1161 8cbb 80ea 4d3d 1ebf ff3d
000001a0: 46c9 efbc 9096 a8bd 8831 153d 4e8d 533e
000001b0: 87cf 44be 0736 f33c 0328 ac3d 85c2 9cbd
000001c0: cf8e 89bd e7fd b8bd 21fd dabc d040 37bd
000001d0: 828b 9b3d 64bb 043e 7736 97bd 7d15 483d
000001e0: 830e 0e3e 6640 813e f35e 39be b4d9 063e
000001f0: 988b cc3d eb02 0cbe eac7 c3bd aa6a db3c
00000200: bc56 9bbd 236a 17be c56c 873d 0d4a de3d
00000210: e083 f9bd cd2a 53be f2ea 563c 5fe6 2c3e
00000220: 7b83 ecbd 8455 05be fe79 0c3e b60d 80bc
00000230: 08f5 52be 6a8a 00be c0aa 413e 2b4e fa3d
00000240: 06e3 233c 99d8 013c 1fea e2bd a020 093e
00000250: 958e 113e 1083 15be e24e 0abe 3a6e 8dbc
00000260: 125b a4bc fe99 633c ab8a 07be 9e01 3dbe
00000270: 4d79 7b3d d118 cf3d ac92 b83d ab2c 2e3d
00000280: fc3b c9bd 51e1 153e e7ae 3e3d 500d 04be
00000290: 8b29 4e3d c93f 103e f75d 23bd 6f97 b2bd
000002a0: 4070 62be d5d6 82be ef93 8e3c 43b5 df3d
000002b0: 8009 3f3d c06f 41bd 2f04 e0bd b5eb b3bb
000002c0: f4b7 6cbe 33d1 b3bd f247 1fbd fc86 a93d
000002d0: 552c 3b3d 3a7b e3bb 589b 2ebd 0869 9bbb
000002e0: ba22 3a3d 48de 903d 3b88 54bc 4657 e43d
000002f0: c4f2 3a3e 4a1c f73d f7cb dcbc f8ac 43be
00000300: 41e1 803d 2ec1 0a3d 52b8 1cbd 9100 28bd
00000310: db29 263e 851f eabd 2807 8dba d3e2 f93d
00000320: 94c9 e2bd ad69 80bd 2d60 17bc 85dc 81bd
00000330: 12aa 64bd 35ea 9b3d 8551 a43d 76bf ddbd
00000340: 248b 14be e3d7 bcbd 5bcb e3bd b03b 0fbe
00000350: 9778 86bd ee0b 98bd 2ad2 a8bd 354b 063e
00000360: db41 cd3d 0a8e c1bb 458a 84bd 8614 df3d
00000370: 41f2 963d 6aeb b6bc 1732 693e c885 613e
00000380: 01b7 933d 419a ccbd 80fa 32be 8c1e 643d
00000390: d196 053d 5b03 1bbd e76b 843d 3baa 013e
000003a0: 94a8 81bc 5748 d2bd 540e 3fbe bdc2 a5bd
000003b0: 303b b5bd fe3e f2bd 10e3 3bbd fe49 f9bc
000003c0: bdad 92bd ca5a 423c 9147 cdbd e463 abbd
000003d0: 225e 423e f96d 3f3d 1845 4c3d 838b c33d
000003e0: a2bd a5bd 373e 19bd 79f3 d3bd 469f fd3b
000003f0: 852a e43c 9372 cabd d12d 4f3a b479 debc

pdm_blocks.0.mixing_multi_scale_season.down_sampling_layers.0.0.bias f4 [24]
-0.02471512 -0.042902686 -0.10460106 -0.04591327 0.1159341 0.108573385 -0.09875699 0.10222703
-0.026209073 0.0072002034 0.14457026 0.12304861 -0.0011077616 -0.10741626 -0.10719747 0.12604249
-0.059677582 0.10207556 -0.03321467 0.14314258 0.12101791 0.04285924 -0.054095753 0.08627671
00000000: 5d77 cabc baba 2fbd 1539 d6bd 8e0f 3cbd
00000010: db6e ed3d b95b de3d 1b41 cabd 685c d13d
00000020: 69b4 d6bc afef eb3b 3a0a 143e e900 fc3d
00000030: 5032 91ba 0efd dbbd 598a dbbd 4811 013e
00000040: 7b70 74bd fe0c d13d 1b0c 08bd f893 123e
00000050: 3dd8 f73d 2c8d 2f3d 8293 5dbd d8b1 b03d

pdm_blocks.0.mixing_multi_scale_season.down_sampling_layers.0.2.weight f4 [24, 24]
0.175679 -0.04320776 -0.14538988 0.22339056 0.17869128 -0.09518506 0.16764793 0.26079082
0.13463245 0.09560603 0.27204466 -0.32585984 -0.24563383 0.06427453 -0.010863971 0.16782579
0.12300097 0.04917087 0.030963287 0.09830332 -0.037001684 -0.000573578 -0.21513258 0.11085818
-0.14194395 0.2479602 -0.049987487 0.23231336 0.046273455 -0.11622998 0.07363513 0.1900587
0.091134876 0.10893279 0.006906848 0.13042834 -0.083598286 -0.1682215 -0.024254443 0.27931756
0.043171603 -0.11066684 0.23256469 -0.103211604 -0.23568718 -0.29537615 0.22904587 -0.13902955
0.17103922 -0.083046384 0.04825914 -0.011584228 -0.21799342 -0.20525053 -0.16403408 0.09070373
-0.14845167 0.15835169 -0.15824153 0.10580347 0.009682561 0.20969614 -0.12272606 0.11009223
0.0030477506 -0.136107 0.012558409 0.120422706 0.013205114 -0.106719576 0.21533214 0.03240452
-0.04825131 0.29035714 0.07691128 -0.1402032 -0.21788041 0.23467351 0.10990159 -0.053069957
0.02517841 0.13484152 0.13444656 0.013920159 -0.22112605 -0.26009232 -0.050148733 -0.14910167
-0.22042423 -0.02813396 0.009094095 0.11863472 -0.2314243 -0.109861135 -0.08753493 0.041412044
0.06624939 0.1992168 0.26618835 -0.15382522 -0.03771909 -0.02280921 0.058057558 -0.009606692
0.25919345 0.32379717 -0.05360073 0.11315551 0.17703545 -0.17065997 0.08967381 -0.13587958
0.21581218 0.04655029 -0.17505243 -0.020420292 0.30767715 0.14105557 0.2907302 -0.16068397
0.03728252 -0.055939883 -0.09146446 0.0408623 -0.18555371 -0.035151836 0.1422371 -0.1840902
-0.04585192 0.16604318 0.23515643 -0.21750672 0.2905134 -0.19985059 0.14879741 0.015077367
-0.064417556 -0.07800686 0.05430841 0.027993342 -0.01283434 -0.09108227 0.27631393 -0.03857988
-0.15483698 0.13948211 -0.16667104 0.21927957 -0.22715923 -0.19591264 0.23804668 0.12047938
-0.18100184 0.17452212 0.16848437 -0.039926376 0.103413895 -0.088564 0.14259014 -0.111966915
0.1549554 -0.28067866 0.048759777 0.17291021 0.18655358 -0.043080498 -0.03037192 -0.10430819
-0.07388477 -0.27146488 0.08478801 -0.15904734 -0.17993677 -0.14136453 0.054327775 -0.18430088
0.029468507 -0.027778488 -0.115386605 0.21266977 0.17692015 -0.23016487 0.021110289 -0.033464257
0.07282338 -0.012661169 -0.03906269 0.27786794 0.2088446 -0.048245315 0.16918214 -0.14177446
0.023039619 0.22670977 -0.030472036 0.19821522 -0.10128749 -0.09917501 -0.045811918 -0.117668964
0.21744211 -0.3313742 -0.17299646 -0.16978496 0.22315279 0.093770325 0.28933147 0.0043346053
-0.025488073 -0.05861555 -0.039206993 -0.2836502 -0.28695703 -0.084766656 0.059624165 0.07164432
0.051875643 -0.06541817 0.07239653 0.14400294 0.048661903 -0.12383985 -0.072391115 -0.11653088
-0.19702423 0.27776164 -0.20226365 0.066338904 0.05285049 0.11268868 0.13631953 -0.11782683
0.05998617 -0.010270162 -0.17586944 0.031020425 -0.08762465 0.022846773 0.21658094 0.12348496
0.0676132 0.11764559 0.14256343 -0.13474776 -0.12663372 0.16681722 0.084865905 0.030128848
0.14569889 0.1214843 0.16144127 0.09304702 -0.00533161 -0.0969349 0.12545572 -0.20159258
00000000: 32e5 333e 9ffa 30bd 16e1 14be 7fc0 643e
00000010: d9fa 363e 62f0 c2bd e6ab 2b3e 6086 853e
00000020: 17dd 093e 18cd c33d 7049 8b3e 1ad7 a6be
00000030: 6f87 7bbe 5da2 833d ccfe 31bc 86da 2b3e
00000040: efe7 fb3d 6567 493d b8a6 fd3c 4053 c93d
00000050: 148f 17bd 2b5c 16ba b74b 5cbe 9d09 e33d
00000060: c159 11be 47e9 7d3e aebf 4cbd 8ee3 6d3e
00000070: 3c89 3d3d fc09 eebd 04ce 963d bf9e 423e
00000080: eca4 ba3d 2818 df3d d752 e23b 028f 053e
00000090: 9435 abbd 4242 2cbe 41b1 c6bc b602 8f3e
000000a0: b5d4 303d 4ca5 e2bd 7025 6e3e 9b60 d3bd
000000b0: fb57 71be 8b3b 97be 008b 6a3e c35d 0ebe
000000c0: e824 2f3e 3914 aabd 60ab 453d c6cb 3dbc
000000d0: ab39 5fbe 322d 52be 8df8 27be e1c2 b93d
000000e0: b703 18be f226 223e 110a 22be 7daf d83d
000000f0: 9ba3 1e3c 96ba 563e cd57 fbbd 0978 e13d
00000100: c5bc 473b a25f 0bbe c9c1 4d3c 2ea0 f63d
00000110: 435a 583c cb8f dabd 0780 5c3e 9aba 043d
00000120: 2aa3 45bd b1a9 943e a983 9d3d 6d91 0fbe
00000130: 0b1c 5fbe 414e 703e 1614 e13d e25f 59bd
00000140: f442 ce3c e513 0a3e 5cac 093e 6111 643c
00000150: de6e 62be d22a 85be c268 4dbd 1cae 18be
00000160: e4b6 61be 3179 e6bc 66ff 143c c3f6 f23d
00000170: 7efa 6cbe e0fe e0bd 8345 b3bd ad9f 293d
00000180: c3ad 873d 7dff 4b3e d749 883e 5c84 1dbe
00000190: 557f 1abd 61da babc c3cd 6d3d 6365 1dbc
000001a0: 01b5 843e bec8 a53e 708c 5bbd 13be e73d
000001b0: c848 353e 7dc1 2ebe e7a6 b73d 0424 0bbe
000001c0: defd 5c3e 84ab 3e3d f240 33be 7548 a7bc
000001d0: dc87 9d3e df70 103e 97da 943e 578a 24be
000001e0: 8eb5 183d 3821 65bd b851 bbbd 3a5f 273d
000001f0: cb01 3ebe 5ffb 0fbd 9aa6 113e 2482 3cbe
00000200: 39cf 3bbd 3907 2a3e d9cc 703e 15ba 5ebe
00000210: 2cbe 943e a2a5 4cbe 595e 183e 1007 773c
00000220: 5aed 83bd 10c2 9fbd 7f72 5e3d 4b52 e53c
00000230: 2047 52bc 5789 babd 0579 8d3e f005 1ebd
00000240: 968d 1ebe 66d4 0e3e d0ab 2abe d38a 603e
00000250: 6e9c 68be 539d 48be 82c2 733e e5bd f63d
00000260: 8c58 39be edb5 323e 2b87 2c3e d789 23bd
00000270: aaca d33d 0b61 b5bd 2603 123e e94e e5bd
00000280: a1ac 1e3e 1db5 8fbe 55b8 473d 600f 313e
00000290: e707 3f3e 2d75 30bd 88ce f8bc 889f d5bd
000002a0: e650 97bd 72fd 8abe 56a5 ad3d 4edd 22be
000002b0: 5841 38be ddc1 10be cd86 5e3d 5fb9 3cbe
000002c0: f067 f13c b68f e3bc d04f ecbd 1bc6 593e
000002d0: 8e2a 353e 57b0 6bbe 7cef ac3c d111 09bd
000002e0: 6d24 953d cb70 4fbc 3300 20bd b544 8e3e
000002f0: 5cdb 553e e19c 45bd 153e 2d3e 532d 11be
00000300: 95bd bc3c 9b26 683e 7ea0 f9bc eef8 4a3e
00000310: d16f cfbd 451c cbbd 47a5 3bbd 6dfc f0bd
00000320: 25a9 5e3e e1a9 a9be fc25 31be 1cdc 2dbe
00000330: 2a82 643e a80a c03d 4123 943e 4e09 8e3b
00000340: 5dcc d0bc dc16 70bd 8397 20bd 993a 91be
00000350: 08ec 92be 249a adbd 7838 743d 42ba 923d
00000360: 8e7b 543d f6f9 85bd a244 943d 8275 133e
00000370: b451 473d bf9f fdbd cb41 94bd bea7 eebd
00000380: b8c0 49be c636 8e3e 341e 4fbe b1dc 873d
00000390: c179 583d 53c9 e63d 5997 0b3e 314f f1bd
000003a0: 0fb4 753d 2e44 28bc 1e17 34be 8c1e fe3c
000003b0: 8d74 b3bd 2829 bb3c 65c7 5d3e afe5 fc3d
000003c0: ca78 8a3d 2cf0 f03d 26fc 113e 51fb 09be
000003d0: 45ac 01be 22d2 2a3e 2dce ad3d c6d0 f63c
000003e0: 1732 153e c3cc f83d dc50 253e 708f be3d
000003f0: c9b4 aebb ce85 c6bd 7777 003e 496e 4ebe

pdm_blocks.0.mixing_multi_scale_season.down_sampling_layers.0.2.bias f4 [24]
-0.15949069 0.16059113 -0.04494241 0.067215286 -0.019034393 0.17975457 -0.15929998 -0.017329106
0.1733439 -0.022163626 -0.09713814 0.0465135 -0.16174206 -0.03880189 -0.15782137 0.16301315
-0.10544815 -0.1270912 -0.15661094 -0.010584411 0.058536455 -0.1475161 -0.069321655 0.1528343
00000000: 8751 23be 0072 243e 8815 38bd 2ba8 893d
00000010: 04ee 9bbc 9511 383e 891f 23be c5f5 8dbc
00000020: 1081 313e 7e90 b5bc 5cf0 c6bd f184 3e3d
00000030: b69f 25be bbee 1ebd ed9b 21be ebec 263e
00000040: 33f5 d7bd 3224 02be 9e5e 20be 3d6a 2dbc
00000050: ecc3 6f3d 760e 17be 83f8 8dbd 9880 1c3e

pdm_blocks.0.mixing_multi_scale_season.down_sampling_layers.1.0.weight f4 [12, 24]
-0.079965614 -0.108406104 -0.054030262 -0.19929361 0.13250081 0.051888913 -0.2403876 -0.058804024
-0.08460822 -0.0501497 -0.16894257 -0.23078065 -0.1491006 -0.066204265 -0.0017213653 0.1639555
0.17787637 -0.11007449 0.17677382 0.08136691 -0.14920233 -0.25727195 -0.059501134 -0.13801149
0.21086036 -0.10108995 -0.0026889988 0.08799034 0.056645744 -0.14981954 0.20388524 0.106154285
0.18816799 -0.2567958 0.026866915 -0.09532242 -0.08676521 -0.04554336 -0.078663506 -0.11657189
-0.027864471 0.024002064 0.078726456 -0.06275372 -0.05281279 -0.11661255 0.17194675 0.08853432
-0.16664365 0.065161616 0.079113476 0.06325469 0.117602035 0.249165 0.024816524 -0.2700507
-0.031333804 0.2387049 -0.07407541 0.09754936 0.1366306 -0.016256697 0.21894307 -0.10688637
-0.26159376 -0.18481638 0.20837013 0.30844215 0.060019214 -0.10295946 0.024643175 0.16702162
0.27933484 0.0016896073 0.051824015 -0.05084546 -0.09619623 0.08149195 0.09185191 -0.1450294
-0.21566924 -0.014384974 0.092940144 0.16315679 -0.18455973 0.09976564 0.05815863 -0.10973975
0.109366044 0.205797 0.22260377 0.0892701 -0.030257106 0.2037734 0.19297886 0.006829444
0.051508848 -0.18966816 -0.1543243 -0.15564328 -0.064517766 -0.15821925 0.0051906887 0.0019043133
0.14604229 -0.18458526 0.11346752 0.1865272 0.01859385 0.11408717 0.26884335 0.16619426
-0.017564336 0.026643533 -0.30311033 0.09349444 0.05917817 -0.13333957 -0.24631236 0.1808025
-0.21739434 -0.06834579 0.03858338 0.19845732 -0.046482522 -0.108988136 -0.1923325 0.07689404
0.1483058 0.17732385 -0.20112678 0.13320477 0.057468165 0.2552843 0.034985885 0.056654494
-0.07541807 0.1767444 -0.13745849 -0.07479807 -0.053480193 -0.11296071 -0.105375536 -0.15112345
0.046055157 0.1612407 -0.05865771 -0.15104926 -0.27174625 0.02061224 0.19156852 0.20722806
0.13749099 -0.16102439 0.003308428 0.07949099 0.08238507 -0.1580538 -0.27810794 0.18472059
0.08839665 -0.106641054 -0.003644858 -0.03238512 -0.038919393 0.13368785 0.0022882763 0.17023233
-0.06874885 -0.14060754 -0.13103308 -0.016197424 -0.1582541 -0.000627817 0.21232988 0.03636952
-0.20908989 0.10881198 0.16791607 0.087534055 -0.06425864 -0.23502657 0.12673013 0.028981574
0.030214055 0.025610983 -0.20305508 -0.191519 -0.018802155 -0.064006805 0.13312076 -0.22518352
-0.02739147 0.040533587 0.011070421 0.041289605 -0.028216064 -0.10637973 0.22626193 0.18538587
-0.025353223 -0.14279963 -0.21986714 -0.15891986 -0.07027701 -0.05228472 -0.10449269 0.121879146
0.04670054 0.047122307 -0.15934381 0.07105252 0.011608429 0.09026599 -0.13750899 0.049452234
0.24750705 0.01909455 -0.16476028 -0.14803803 -0.06453381 -0.19996546 0.24650387 0.12455255
-0.07922653 -0.022285555 0.016927255 0.041461065 -0.17057042 -0.21126725 -0.18680029 -0.03889574
0.11673502 0.009207137 -0.132068 -0.07472212 0.120108925 0.17154136 -0.13112146 -0.1817679
0.12480598 -0.17366987 -0.06308556 0.17803349 -0.23004994 -0.11205387 0.01650535 0.048588548
-0.07702073 -0.108588554 -0.06759204 -0.068498634 -0.11217796 0.07958757 -0.12929942 -0.024849584
00000000: 03c5 a3bd 0504 debd d64e 5dbd a013 4cbe
00000010: 4bae 073e 7889 543d 2b28 76be 7ddc 70bd
00000020: 1347 adbd c669 4dbd 48ff 2cbe c351 6cbe
00000030: d4ad 18be 1a96 87bd 6f9f e1ba f3e3 273e
00000040: 3925 363e bc6e e1bd 3204 353e b2a3 a63d
00000050: 7fc8 18be 26b9 83be 76b7 73bd e252 0dbe
00000060: c7eb 573e 3f08 cfbd ea39 30bb 4834 b43d
00000070: 5e05 683d 4b6a 19be 4bc7 503e 6b67 d93d
00000080: 1caf 403e bd7a 83be 0118 dc3c 6738 c3bd
00000090: f5b1 b1bd ad8b 3abd 551a a1bd 3ebd eebd
000000a0: 0844 e4bc fa9f c43c 563b a13d 0685 80bd
000000b0: 3952 58bd 90d2 eebd cf12 303e 7b51 b53d
000000c0: a2a4 2abe 7473 853d 3f06 a23d ad8b 813d
000000d0: 56d9 f03d 1c25 7f3e 064c cb3c 1644 8abe
000000e0: e057 00bd 0f6f 743e d9b4 97bd f5c7 c73d
000000f0: e4e8 0b3e c42c 85bc 9d32 603e 3ee7 dabd
00000100: 9eef 85be 8140 3dbe fb5e 553e 21ec 9d3e
00000110: b5d6 753d 69dc d2bd 7ce0 c93c b707 2b3e
00000120: fa04 8f3e d075 dd3a 6b45 543d 5443 50bd
00000130: 8702 c5bd 40e5 a63d db1c bc3d 9682 14be
00000140: 66d8 5cbe f4ae 6bbc 6757 be3d 9312 273e
00000150: 3afd 3cbe ee51 cc3d be37 6e3d 3cbf e0bd
00000160: 4efb df3d 73bc 523e 3ef2 633e 3ed3 b63d
00000170: c0dd f7bc f9a9 503e 409c 453e 87c9 df3b
00000180: f1fa 523d 5f38 42be 3007 1ebe f460 1fbe
00000190: e421 84bd 3a04 22be a716 aa3b 279a f93a
000001a0: 1c8c 153e eb03 3dbe a961 e83d fc00 3f3e
000001b0: 2152 983c 89a6 e93d d6a5 893e d42e 2a3e
000001c0: 15e3 8fbc 8a43 da3c 4731 9bbe 037a bf3d
000001d0: cf64 723d 2b8a 08be 4f39 7cbe 4a24 393e
000001e0: 9f9c 5ebe e1f8 8bbd 9b09 1e3d 6538 4b3e
000001f0: 7564 3ebd 2c35 dfbd d0f2 44be 9f7a 9d3d
00000200: 7add 173e 6294 353e 2ef4 4dbe d566 083e
00000210: bd63 6b3d a0b4 823e 5c4d 0f3d 8b0e 683d
00000220: ca74 9abd 7cfc 343e ebc1 0cbe bb2f 99bd
00000230: 0c0e 5bbd f257 e7bd 21cf d7bd 1bc0 1abe
00000240: 55a4 3c3d 481c 253e 1143 70bd a8ac 1abe
00000250: 5322 8bbe 00db a83c 8a2a 443e 9833 543e
00000260: 70ca 0c3e 94e3 24be 36d2 583b 2ccc a23d
00000270: 81b9 a83d dbd8 21be 2a64 8ebe 6527 3d3e
00000280: 4e09 b53d a066 dabd 92de 6ebb 42a6 04bd
00000290: f169 1fbd 78e5 083e e8f6 153b 6251 2e3e
000002a0: 32cc 8cbd 6cfb 0fbe 892d 06be 76b0 84bc
000002b0: 5d0d 22be 1694 24ba 016d 593e 35f8 143d
000002c0: a91b 56be d1d8 de3d 31f2 2b3e 0e45 b33d
000002d0: 099a 83bd ceaa 70be 8bc5 013e c46a ed3c
000002e0: 7783 f73c 20ce d13c aced 4fbe 8f1d 44be
000002f0: fa06 9abc 0016 83bd cf50 083e 8296 66be
00000300: 1364 e0bc 8c06 263d b660 353c 4a1f 293d
00000310: 6025 e7bc 9edd d9bd 35b1 673e cbd5 3d3e
00000320: 90b1 cfbc 113a 12be da24 61be e3bb 22be
00000330: 65ed 8fbd 8128 56bd 4300 d6bd c69b f93d
00000340: 1149 3f3d 5203 413d 062b 23be fc83 913d
00000350: 4831 3e3c 60dd b83d 28cf 0cbe 6d8e 4a3d
00000360: 7d72 7d3e 2c6c 9c3c ebb6 28be 4897 17be
00000370: 4d2a 84bd bfc3 4cbe 836b 7c3e 6815 ff3d
00000380: 8541 a2bd 3290 b6bc 07ab 8a3c 14d3 293d
00000390: 03aa 2ebe 7156 58be 9348 3fbe 2451 1fbd
000003a0: c512 ef3d 88d9 163c d53c 07be e907 99bd
000003b0: abfb f53d 8aa8 2f3e b444 06be 5d21 3abe
000003c0: 479a ff3d 84d6 31be 0133 81bd 694e 363e
000003d0: 3692 6bbe 807c e5bd 3a36 873c c904 473d
000003e0: 0bbd 9dbd ad63 debd b26d 8abd 0349 8cbd
000003f0: 8fbd e5bd cffe a23d 1167 04be 5b91 cbbc

pdm_blocks.0.mixing_multi_scale_season.down_sampling_layers.1.0.bias f4 [12]
0.037556633 0.08610426 0.054434545 0.024966193 -0.024208069 0.19935244 0.10559749 0.19686216
-0.14538462 0.14409102 0.08272136 0.031235153
00000000: fcd4 193d 6e57 b03d c2f6 5e3d e785 cc3c
00000010: 0050 c6bc 0c23 4c3e 7f43 d83d 3c96 493e
00000020: b5df 14be 998c 133e d169 a93d dde0 ff3c

pdm_blocks.0.mixing_multi_scale_season.down_sampling_layers.1.2.weight f4 [12, 12]
-0.2716847 -0.22604063 0.29387194 0.10774184 0.054820053 0.06372034 0.0946888 -0.2595796
-0.0036883478 -0.09310621 0.0070016994 0.16663328 0.08613818 -0.098732345 -0.13716713 -0.19583079
-0.2925338 0.17207947 0.20443213 -0.1459936 0.02848072 0.16644458 0.08728054 -0.13207148
0.15091099 0.1404512 0.016905122 -0.055384655 -0.39979473 -0.19046408 0.15264775 0.06561816
0.021486536 0.2579863 -0.2847962 0.22944753 -0.29170737 0.21735018 -0.12186421 -0.25364944
-0.17263491 0.23891239 -0.05316926 0.1268339 -0.036726493 -0.2885563 -0.25215226 -0.18332648
0.102826245 0.2390102 0.15386972 -0.17135045 0.020005014 0.120455675 -0.02406837 0.32324153
-0.2224281 0.3296903 0.050590746 -0.01802836 -0.22233994 0.14445162 -0.41788438 0.13103376
0.12406142 0.20381582 0.2664083 0.13043198 0.32776925 0.20871899 0.21776502 -0.001902086
0.19915254 0.12817903 0.10717533 0.0764779 -0.046026405 0.22710887 -0.23248337 0.27603903
-0.03158955 -0.17699213 0.20478556 -0.080481716 -0.121358216 -0.05719987 -0.08714737 -0.11905205
0.074063025 0.07680956 0.2376557 0.24909413 0.0042968625 -0.02165869 0.10794743 0.031001495
0.3102347 -0.13712409 0.22333537 -0.016338684 -0.2587589 0.07000467 -0.18306695 0.28442
-0.2715654 -0.22232246 0.23625581 -0.1801971 -0.109552905 -0.24651411 0.30661404 0.07111764
0.2939232 -0.147887 -0.0369676 0.06423229 0.29592726 -0.20543359 0.2839206 -0.08515497
-0.21582106 0.14197882 -0.13196805 -0.0022056098 -0.02848809 0.18392366 -0.13179295 0.10256198
-0.27194044 -0.024590567 0.07416055 0.014033482 -0.30971172 -0.011793441 -0.0656079 0.17620951
-0.25821465 0.14207596 -0.20036504 0.13719438 0.028831339 -0.08416785 -0.09072724 0.24084412
00000000: 421a 8bbe 3277 67be 6276 963e c1a7 dc3d
00000010: fe8a 603d cf7f 823d 34ec c13d 9ee7 84be
00000020: 35b8 71bb 78ae bebd 836e e53b eaa1 2a3e
00000030: 3769 b03d 2f34 cabd 8a75 0cbe de87 48be
00000040: fdc6 95be 9a35 303e a856 513e 597f 15be
00000050: 6650 e93c 7370 2a3e 24c0 b23d bf3d 07be
00000060: 6988 1a3e 70d2 0f3e 9c7c 8a3c 05db 62bd
00000070: e5b1 ccbe 0409 43be b14f 1c3e d062 863d
00000080: 8804 b03c c816 843e cfd0 91be 4bf4 6a3e
00000090: ab5a 95be 0c91 5e3e f193 f9bd 57de 81be
000000a0: 35c7 30be 73a5 743e 03c8 59bd bfe0 013e
000000b0: 856e 16bd a7bd 93be 1a1a 81be f0b9 3bbe
000000c0: 9196 d23d 17bf 743e 0690 1d3e 7e76 2fbe
000000d0: 8ee1 a33c 77b1 f63d 082b c5bc ea7f a53e
000000e0: 31c4 63be 2bcd a83e 3e38 4f3d 36b0 93bc
000000f0: 15ad 63be 20eb 133e f1f4 d5be b72d 063e
00000100: ea13 fe3d 18b5 503e ab66 883e f68f 053e
00000110: 5fd1 a73e 6eba 553e cbfd 5e3e 6a4f f9ba
00000120: a5ee 4b3e 5d41 033e bd7e db3d 72a0 9c3d
00000130: 2f86 3cbd 3a8f 683e 1f10 6ebe fd54 8d3e
00000140: 0b64 01bd 6d3d 35be 4eb3 513e 99d3 a4bd
00000150: a88a f8bd 694a 6abd 527a b2bd 90d1 f3bd
00000160: 5bae 973d 554e 9d3d 045c 733e 8812 7f3e
00000170: b2cc 8c3b 916d b1bc 8b13 dd3d d9f6 fd3c
00000180: 15d7 9e3e 426a 0cbe 07b2 643e b4d8 85bc
00000190: 0c7c 84be 9c5e 8f3d e775 3bbe 809f 913e
000001a0: 9f0a 8bbe 80a8 63be 0bed 713e 9785 38be
000001b0: 465d e0bd 326e 7cbe 84fc 9c3e 20a6 913d
000001c0: 1a7d 963e b16f 17be 576b 17bd 388c 833d
000001d0: c783 973e 2f5d 52be 0a5e 913e bb65 aebd
000001e0: 3200 5dbe e562 113e a222 07be fe8b 10bb
000001f0: db5f e9bc 7c56 3c3e bbf4 06be 040c d23d
00000200: c73b 8bbe 2872 c9bc 7de1 973d b1ec 653c
00000210: 8992 9ebe 4739 41bc 6f5d 86bd 4470 343e
00000220: b634 84be 5c7c 113e 7e2c 4dbe af7c 0c3e
00000230: b32f ec3c 3260 acbd 34cf b9bd d79f 763e

pdm_blocks.0.mixing_multi_scale_season.down_sampling_layers.1.2.bias f4 [12]
0.15207268 0.03397819 -0.01384318 -0.0969311 0.14420372 0.24607514 -0.1935671 -0.032610312
-0.034512594 0.12991653 0.23601152 0.14391638
00000000: f1b8 1b3e b72c 0b3d 81ce 62bc d083 c6bd
00000010: 24aa 133e 1ffb 7b3e 7436 46be 6492 05bd
00000020: 145d 0dbd d708 053e 01ad 713e d15e 133e

pdm_blocks.0.mixing_multi_scale_trend.up_sampling_layers.0.0.weight f4 [24, 12]
0.221183 -0.005863092 -0.14841822 -0.00056810165 -0.121338606 -0.06575854 0.2184407 0.002802927
-0.2668272 0.19788677 -0.03721822 -0.08950487 -0.08003323 -0.03116924 -0.058729004 0.23787603
0.027861465 -0.05429887 -0.23662151 0.26541024 0.11334684 0.28419504 0.07546002 -0.257878
-0.013472749 -0.2028391 0.087315224 -0.11150551 -0.076941594 0.24067034 -0.004171805 0.11532713
0.23649636 0.29352576 -0.16629882 -0.12540697 0.13762248 -0.15028043 -0.06761779 -0.1279674
-0.18478678 0.26788616 0.31682354 -0.17663227 -0.09506135 -0.027491061 -0.14700128 -0.2381244
-0.0065257223 -0.02418627 -0.11627469 0.05669065 0.00761742 0.21932322 0.014933155 0.0031970306
0.29476887 0.09660297 -0.03989342 -0.25408956 0.11615247 0.08465827 0.23015016 -0.2538081
0.15183865 0.2254468 -0.23124972 0.2277838 -0.16368815 0.2907928 0.049803223 -0.111128025
-0.27131805 0.014805488 0.214621 -0.226043 -0.19586605 0.20604645 0.0564917 -0.061746936
0.013976393 0.10207408 0.19751447 -0.10516183 -0.210158 0.20584558 -0.07873906 0.25853854
0.00086516445 0.21324132 -0.08392185 0.08810862 -0.06563645 -0.1264921 0.2708265 -0.089227065
-0.25269023 0.018686172 0.07426428 0.2231586 0.1975289 -0.106021926 -0.021986399 0.21740523
-0.08528426 -0.20969999 -0.21430014 0.2708233 -0.13172632 0.23754452 -0.15797514 0.21164261
0.14554599 0.16148634 -0.19452536 0.016407704 0.07050011 0.10738304 0.29061934 0.17321362
-0.10170958 0.12517282 0.1675179 -0.2199451 0.15942727 -0.17482586 0.15306513 -0.26622885
0.15394565 -0.19658615 0.08641852 0.15135512 -0.18430589 -0.08800224 0.26163912 -0.16687281
0.17933016 0.032364856 0.08201474 -0.04892971 -0.114897385 0.1235051 0.067618154 0.079485506
-0.2333631 0.2636328 -0.087360986 0.23053926 0.1904112 0.18628058 0.08290822 -0.021730132
-0.19921263 -0.18417679 -0.011900306 0.08999164 -0.25223377 0.2945227 -0.23487212 -0.10613851
-0.13712473 0.27609184 0.081820674 0.28752375 -0.080230504 0.2524444 0.2077364 0.020190917
-0.14184953 -0.04753616 -0.30577594 -0.1979226 0.14232725 -0.25758183 -0.00011642743 0.15417533
0.0072094807 0.082538605 0.07637304 -0.07621549 -0.02031885 0.041156575 -0.069074824 -0.12626337
-0.043531388 -0.14362036 -0.1896814 0.11646886 0.1749999 0.040241435 -0.19591774 -0.058025565
-0.03422975 -0.061585434 0.17709231 0.28332242 -0.08995824 0.14583829 0.10537198 -0.27704102
0.04967337 0.22378911 0.22055395 -0.2603067 -0.14320223 -0.0716207 -0.12509006 0.014696876
-0.006009275 -0.09596781 0.16174562 0.16193159 0.050985646 0.074238315 -0.24739298 0.17779163
-0.091030195 -0.22689638 0.13799283 0.18098494 0.0044961493 0.13493863 0.121911906 0.118796326
-0.044761457 0.04530671 -0.032578398 -0.24412242 0.19245258 -0.08678042 0.17774473 -0.25597188
-0.13243845 0.03617592 -0.23918793 0.038604997 0.07342134 -0.26024017 -0.10115516 -0.07823061
-0.15633182 0.05007506 0.28257573 -0.26150617 -0.11115472 0.24152775 -0.22043474 0.16698568
-0.24879426 -0.19184569 0.102442786 0.24650726 -0.084854215 -0.2350281 -0.031601902 0.09347468
00000000: cc7d 623e 2e1f c0bb f2fa 17be a8ec 14ba
00000010: 6080 f8bd 6aac 86bd ebae 5f3e 50b1 373b
00000020: 939d 88be d4a2 4a3e 2272 18bd 544e b7bd
00000030: 76e8 a3bd a256 ffbc d38d 70bd c695 733e
00000040: ba3d e43c 7e68 5ebd e94c 72be dae3 873e
00000050: 6322 e83d 0382 913e c88a 9a3d 9608 84be
00000060: cebc 5cbc 0eb5 4fbe 53d2 b23d 005d e4bd
00000070: 8e93 9dbd 4972 763e a3b3 88bb a130 ec3d
00000080: 1a2c 723e 0249 963e 3d4a 2abe af6a 00be
00000090: e8ec 0c3e 1de3 19be 327b 8abd e309 03be
000000a0: bf38 3dbe 6028 893e b236 a23e 17df 34be
000000b0: 86af c2bd ef34 e1bc 8187 16be e2d6 73be
000000c0: bad5 d5bb 4922 c6bc 6d21 eebd 7434 683d
000000d0: 8d9b f93b 4496 603e 31aa 743c 4685 513b
000000e0: f2eb 963e c7d7 c53d 4867 23bd 0718 82be
000000f0: 59e1 ed3d 5161 ad3d 7cac 6b3e 23f3 81be
00000100: 977b 1b3e 87db 663e bacc 6cbe 2840 693e
00000110: de9d 27be cbe2 943e 77fe 4b3d 1797 e3bd
00000120: 33ea 8abe b892 723c 9cc5 5b3e d177 67be
00000130: 1c91 48be d7fd 523e d763 673d 5bea 7cbd
00000140: 3efd 643c 370c d13d 3c41 4a3e 165f d7bd
00000150: a933 57be 2fc9 523e f241 a1bd 2a5f 843e
00000160: 34cc 623a ef5b 5a3e 38df abbd 4b72 b43d
00000170: 676c 86bd 2587 01be c5a9 8a3e aebc b6bd
00000180: 9d60 81be be13 993c df17 983d b083 643e
00000190: 0445 4a3e 0622 d9bd d21c b4bc 7a9f 5e3e
000001a0: 84a9 aebd 98bb 56be 7f71 5bbe 5aa9 8a3e
000001b0: 44e3 06be df3e 733e 3cc4 21be d7b8 583e
000001c0: 020a 153e ad5c 253e a831 47be 7369 863c
000001d0: 5d62 903d a4eb db3d 0fcc 943e e95e 313e
000001e0: 1d4d d0bd 4e2d 003e d089 2b3e 4a39 61be
000001f0: e740 233e 8d05 33be 1bbd 1c3e 264f 88be
00000200: eea3 1d3e e14d 49be 31fc b03d d6fc 1a3e
00000210: afba 3cbe 853a b4bd 90f5 853e b5e0 2abe
00000220: 53a2 373e 0391 043d 58f7 a73d 856a 48bd
00000230: 524f ebbd 3ef0 fc3d 637b 8a3d 4cc9 a23d
00000240: bdf6 6ebe e1fa 863e 51ea b2bd 7c12 6c3e
00000250: 27fb 423e 56c0 3e3e c9cb a93d 6403 b2bc
00000260: 65fe 4bbe d798 3cbe 80f9 42bc 894d b83d
00000270: c924 81be aecb 963e 5182 70be 265f d9bd
00000280: 6d6a 0cbe e95b 8d3e 9991 a73d 5036 933e
00000290: e44f a4bd 6440 813e dab8 543e 6c67 a53c
000002a0: 0141 11be 47b5 42bd aa8e 9cbe 39ac 4abe
000002b0: 3cbe 113e c4e1 83be 802a f4b8 23e0 1d3e
000002c0: 823d ec3b 000a a93d 7869 9c3d de16 9cbd
000002d0: b873 a6bc cc93 283d 1a77 8dbd 2f4b 01be
000002e0: f84d 32bd 3711 13be d73b 42be 3a87 ee3d
000002f0: 2c33 333e 34d4 243d a99e 48be 37ac 6dbd
00000300: 7f34 0cbd 0241 7cbd b057 353e a30f 913e
00000310: 073c b8bd a256 153e 44cd d73d 52d8 8dbe
00000320: 4e76 4b3d f928 653e e5d8 613e eb46 85be
00000330: 9ba3 12be e0ad 92bd 9c17 00be 2acb 703c
00000340: 74e9 c4bb c58a c4bd a5a0 253e 65d1 253e
00000350: 53d6 503d 420a 983d 9654 7dbe 020f 363e
00000360: 0a6e babd 8657 68be fe4d 0d3e 1e54 393e
00000370: 6f54 933b 5a2d 0a3e f3ac f93d 7d4b f33d
00000380: ca57 37bd 8793 393d ed70 05bd 3afb 79be
00000390: 4a12 453e efb9 b1bd b702 363e bf0e 83be
000003a0: f29d 07be 342d 143d aeed 74be 4620 1e3d
000003b0: ed5d 963d 333e 85be 702a cfbd 5f37 a0bd
000003c0: 7315 20be 821b 4d3d c4ad 903e 23e4 85be
000003d0: 16a5 e3bd 0d53 773e a5b9 61be 4bfe 2a3e
000003e0: ecc3 7ebe 3273 44be 86cd d13d 666c 7c3e
000003f0: 0cc8 adbd 35ab 70be ff70 01bd a76f bf3d

pdm_blocks.0.mixing_multi_scale_trend.up_sampling_layers.0.0.bias f4 [24]
-0.15742989 0.06004475 0.060273994 -0.17520386 0.04264095 -0.11080446 0.24226761 -0.12041486
0.05731772 0.27207574 0.14657278 0.15943673 -0.004906252 0.12365118 -0.21591885 -0.08991863
-0.26783633 -0.033713117 0.18404017 -0.21124852 -0.0057333116 0.08395295 -0.27975985 -0.09851427
00000000: 4d35 21be 7cf1 753d dde1 763d a468 33be
00000010: 47a8 2e3d 73ed e2bd 0015 783e 119c f6bd
00000020: fcc5 6a3d 834d 8b3e 2d17 163e 6243 233e
00000030: a0c4 a0bb d43c fd3d d519 5dbe 4227 b8bd
00000040: d821 89be c416 0abd 0775 3c3e 8851 58be
00000050: 81de bbbb 86ef ab3d af3c 8fbe d9c1 c9bd

pdm_blocks.0.mixing_multi_scale_trend.up_sampling_layers.0.2.weight f4 [24, 24]
-0.1271106 -0.16812755 -0.13891305 -0.033883277 0.033194724 0.19358562 -0.19386542 -0.15882511
-0.04354924 0.08999096 0.07336429 -0.024256147 -0.09224723 -0.093361445 -0.04438882 -0.06825932
-0.19311376 -0.17384352 -0.1739992 -0.037004508 -0.093764275 0.19126642 0.05185198 0.18056251
-0.037976436 0.016418243 -0.032959938 -0.083327934 -0.20548368 -0.20989896 -0.10329598 -0.11034133
-0.1204583 -0.09621368 0.0975767 -0.07298306 -0.17687798 0.0076797125 0.032318037 -0.0645802
-0.21063054 -0.03570563 -0.11291969 0.18385717 -0.028882975 0.16327615 -0.09974604 0.13344331
0.18138626 -0.10516148 -0.09093383 -0.0069171293 -0.020380007 -0.047383465 0.11602633 0.057451546
-0.14106677 0.051163 0.09814219 0.073771514 0.079525895 -0.072998166 0.08571496 0.21026172
-0.11664984 -0.096965015 -0.10255906 -0.12065951 -0.18437693 0.11283105 0.16635783 0.073265895
-0.034477714 -0.20513251 -0.1343963 -0.14508864 0.036539342 -0.14076838 -0.02340514 -0.112070285
0.045462206 -0.21776053 -0.13402161 0.06077923 -0.16322587 -0.10260241 0.055117447 0.14741318
-0.0010246815 0.05169459 0.093856275 0.2500123 0.05509263 -0.20351447 0.05143803 -0.1401713
0.13714707 -0.19097814 -0.17976491 0.22213815 0.1725286 -0.13394359 0.17753462 -0.03215886
-0.21983054 -0.0023541255 0.07653615 -0.21766844 -0.16043925 -0.23876944 -0.11724461 -0.0010497355
-0.24246328 -0.08833148 0.04024272 -0.044037953 0.19438533 0.0076213074 -0.19607747 0.15082008
-0.10843626 -0.01682431 0.08467831 0.05345952 -0.13513282 -0.07411383 -0.11844001 0.06652106
-0.17294802 -0.08649533 0.025478832 0.18464309 -0.022162274 -0.16659765 -0.11907561 -0.17600594
0.015720602 -0.17300199 0.086178705 -0.04044557 -0.03602442 -0.11690676 0.15693387 0.034378145
0.11914757 -0.06536241 -0.15677224 -0.015527922 0.07942121 0.07117949 0.13300347 -0.08953625
-0.20982039 -0.14325942 -0.1223579 0.14924636 0.12753695 -0.044738296 -0.005959679 -0.088081494
0.012092726 -0.18260805 -0.046499643 -0.116314285 0.064422466 -0.1673498 -0.023252234 -0.058572758
-0.15159036 0.077862754 -0.12025789 -0.04379198 -0.14775711 -0.024630928 -0.10643295 0.080265954
0.065029256 -0.18799448 0.12902683 0.023772925 -0.23379442 -0.030462855 -0.015214674 -0.054928243
0.12305539 -0.0033116746 -0.06778823 0.21081345 0.13653281 -0.19663511 -0.11432911 0.06873884
-0.11008736 -0.17306933 0.13079798 -0.18096802 -0.10633076 0.10757277 0.13710986 -0.14934583
0.012430175 -0.1904377 0.12209189 0.039909143 -0.14319772 0.014499525 0.23401618 0.00043931842
-0.074970655 -0.042506956 0.07422613 0.10238787 0.028011862 0.103339374 0.104550585 -0.14246154
0.08350466 0.13930802 -0.22153625 -0.15855806 0.12757635 0.08313369 0.04393108 -0.06645447
-0.20053752 0.16487321 -0.12743764 -0.2111915 0.008886578 -0.13010855 0.097062185 -0.03466159
-0.07178732 -0.14277026 -0.21071364 0.10427725 -0.14626618 -0.21397863 -0.11231957 -0.11567097
-0.07822642 0.12211099 -0.06806065 0.017115772 0.00469619 -0.069975585 -0.21754025 -0.019223621
0.1580926 -0.09805132 0.050664388 -0.028823674 -0.14792785 -0.15288827 -0.15946372 -0.075086616
00000000: 4829 02be a129 2cbe 393f 0ebe 31c9 0abd
00000010: 31f7 073d 4f3b 463e a884 46be 0da3 22be
00000020: b060 32bd 2e4d b83d 0440 963d d4b4 c6bc
00000030: 1eec bcbd 4934 bfbd 0dd1 35bd 8bcb 8bbd
00000040: 9dbf 45be 0904 32be d92c 32be 0a92 17bd
00000050: 7c07 c0bd 58db 433e be62 543d 61e5 383e
00000060: 2e8d 1bbd 8d7f 863c 0001 07bd d6a7 aabd
00000070: 506a 52be c1ef 56be d88c d3bd a3fa e1bd
00000080: d7b2 f6bd ae0b c5bd 4bd6 c73d 2478 95bd
00000090: 801f 35be 19a6 fb3b eb5f 043d a042 84bd
000000a0: 88af 57be 1140 12bd 7042 e7bd 0e45 3c3e
000000b0: fd9b ecbc dd31 273e a747 ccbd 5da5 083e
000000c0: 52bd 393e e75e d7bd 843b babd 16a9 e2bb
000000d0: f9f3 a6bc 2a15 42bd 369f ed3d 5052 6b3d
000000e0: cf73 10be 4b90 513d c6fe c83d 8515 973d
000000f0: 79de a23d 1080 95bd 538b af3d d94e 573e
00000100: 1ce6 eebd 9895 c6bd 7c0a d2bd 551c f7bd
00000110: 4ecd 3cbe f713 e73d b559 2a3e 6e0c 963d
00000120: 8138 0dbd 420e 52be 2f9f 09be 1e92 14be
00000130: 47aa 153d 9625 10be 23bc bfbc 1b85 e5bd
00000140: 9436 3a3d 9efc 5ebe f63c 09be a4f3 783d
00000150: af24 27be 3621 d2bd d5c2 613d 7bf3 163e
00000160: 9b4e 86ba b5bd 533d b837 c03d 9d01 803e
00000170: cfa8 613d 1966 50be afb0 523d 1189 0fbe
00000180: 4870 0c3e c68f 43be 4b14 38be 2f78 633e
00000190: 56ab 303e 8228 09be a3cb 353e 02b9 03bd
000001a0: 421b 61be ac47 1abb fcbe 9c3d 7ae4 5ebe
000001b0: 304a 24be fa7f 74be f11d f0bd 4797 89ba
000001c0: 4b48 78be 23e7 b4bd 8dd5 243d 2461 34bd
000001d0: f30c 473e 29bc f93b 88c8 48be 9470 1a3e
000001e0: d413 debd 23d3 89bc d26b ad3d 5ff8 5a3d
000001f0: 4260 0abe fec8 97bd ad90 f2bd 323c 883d
00000200: 4919 31be 7724 b1bd fcb8 d03c 1413 3d3e
00000210: a88d b5bc 9398 2abe eadd f3bd e73a 34be
00000220: 7ec8 803c 6f27 31be 767e b03d 41aa 25bd
00000230: 588e 13bd d06c efbd 46b3 203e 19d0 0c3d
00000240: a403 f43d badc 85bd e788 20be d368 7ebc
00000250: 96a7 a23d 8dc6 913d 1032 083e c85e b7bd
00000260: 28db 56be 99b2 12be c796 fabd 0ad4 183e
00000270: 0c99 023e 813f 37bd 6949 c3bb 1264 b4bd
00000280: 9220 463c 9bfd 3abe 6976 3ebd 2f36 eebd
00000290: edef 833d bf5d 2bbe 787b bebc fde9 6fbd
000002a0: 813a 1bbe 8276 9f3d c549 f6bd 385f 33bd
000002b0: a44d 17be cdc6 c9bc 85f9 d9bd 7a62 a43d
000002c0: 0f2e 853d a081 40be 9c1f 043e 70bf c23c
000002d0: ce67 6fbe 3d8d f9bc f846 79bc 70fc 60bd
000002e0: 7704 fc3d ae08 59bb 8ed4 8abd 7bdf 573e
000002f0: 42cf 0b3e b75a 49be 6125 eabd f3c6 8c3d
00000300: 7b75 e1bd 1639 31be e8ef 053e ae4f 39be
00000310: f1c3 d9bd 1d4f dc3d 8766 0c3e 1dee 18be
00000320: efa7 4b3c 1a02 43be 500b fa3d c577 233d
00000330: 6ca2 12be 6a8f 6d3c f0a1 6f3e 5254 e639
00000340: 378a 99bd c61b 2ebd df03 983d bbb0 d13d
00000350: 2279 e53c 98a3 d33d 9e1e d63d 70e1 11be
00000360: 7e04 ab3d c3a6 0e3e 66da 62be 0b5d 22be
00000370: 60a3 023e ff41 aa3d 13f1 333d 4819 88bd
00000380: b559 4dbe 86d4 283e 037f 02be 9642 58be
00000390: 0299 113c 2d3b 05be 8ac8 c63d 50f9 0dbd
000003a0: 3b05 93bd 5e32 12be 51c5 57be 508f d53d
000003b0: cdc6 15be 371d 5bbe cd07 e6bd e7e4 ecbd
000003c0: 2c35 a0bd 5415 fa3d 6263 8bbd 6036 8c3c
000003d0: 7fe2 993b 5c4f 8fbd dfc2 5ebe db7a 9dbc
000003e0: 07e3 213e 21cf c8bd 7685 4f3d a01f ecbc
000003f0: 667a 17be be8e 1cbe 754a 23be 03c7 99bd

pdm_blocks.0.mixing_multi_scale_trend.up_sampling_layers.0.2.bias f4 [24]
-0.140474 -0.045029953 0.079777114 0.082711585 0.07962845 -0.07895535 0.1292807 -0.09779526
0.042217813 0.097945854 0.16437954 0.014059159 -0.087125145 0.08081419 0.19272779 -0.1935631
-0.1986809 -0.017139189 -0.08500986 -0.0911102 -0.13712333 0.04401728 -0.112557955 0.094487436
00000000: 6bd8 0fbe 5471 38bd 2f62 a33d b164 a93d
00000010: 3e14 a33d 58b3 a1bd 2962 043e e248 c8bd
00000020: 96ec 2c3d d697 c83d 1c53 283e 6358 663c
00000030: ab6e b2bd e981 a53d 6f5a 453e 6835 46be
00000040: 0173 4bbe 7c67 8cbc a619 aebd fc97 babd
00000050: 0f6a 0cbe 774b 343d c984 e6bd a182 c13d

pdm_blocks.0.mixing_multi_scale_trend.up_sampling_layers.1.0.weight f4 [48, 24]
0.22286932 -0.14978331 0.04837168 0.22377242 0.2447258 -0.014713454 0.15258113 0.121608146
0.17027679 0.014404749 -0.022618806 -0.076108314 0.034129493 0.06845136 -0.07651731 -0.16398405
0.18232717 -0.12452944 -0.021804908 -0.106441036 -0.05903357 -0.21106005 -0.1046188 0.05908502
0.12944274 0.18502204 -0.07516406 -0.12954845 -0.18163446 -0.07974348 -0.17359865 -0.13170746
-0.06954518 0.20257613 -0.12868682 -0.14915447 -0.04915406 0.12662354 -0.020065982 -0.006999019
0.13701014 0.11796499 0.16520566 -0.119603366 0.15522042 -0.19217205 -0.13331138 -0.0037484886
0.16735181 0.04575422 0.24682967 0.05254298 -0.04666698 0.068140045 0.02229088 0.119455405
0.16587192 -0.104971044 0.066824436 0.22365317 0.038532693 0.11829188 -0.025239348 0.26349124
0.051285822 0.17142004 -0.026628036 -0.15838915 -0.06104662 0.15953489 0.031746637 -0.042905465
0.15756105 -0.14714046 -0.16000965 0.058796372 0.19123997 0.058455013 -0.09576499 0.082746
0.07545833 -0.2054408 0.16102599 0.00020260458 -0.090953805 -0.22322147 0.017577507 -0.06025948
0.038473055 -0.17968969 0.05934044 -0.18138245 0.1441346 -0.015428764 0.06879478 0.0813172
0.18487298 0.021793175 0.14480491 -0.1864831 0.12658793 0.16876362 -0.123187274 -0.09040012
0.16623695 0.16213773 -0.17598836 0.010849492 -0.12236666 0.10701739 -0.17696361 -0.07499025
0.18358843 0.18194085 0.18648906 0.016212156 -0.17850946 0.1189118 0.16614567 0.12721972
0.13907745 -0.0045925677 0.12621732 0.059681445 -0.06335902 0.14337637 -0.060039226 0.12000471
-0.011164779 -0.008418894 0.1025966 -0.022556324 0.08279364 -0.17336304 -0.19426756 0.021382583
-0.049891658 -0.091263264 -0.18749851 0.013295732 -0.109525345 0.17621115 -0.1645779 -0.07932003
-0.022676202 0.055445198 -0.15637037 0.1334458 -0.1545239 -0.09188434 0.071239 -0.013468572
0.046022594 -0.17643309 -0.10890158 0.1598476 0.0935947 0.114983365 0.13999309 0.15298915
0.10657752 -0.050460175 -0.09468051 -0.13008548 0.06543075 0.0054671057 -0.09365463 0.13387354
0.020802215 -0.009554619 -0.030727807 -0.13237433 0.19664222 -0.18728781 -0.17006283 0.04987656
-0.08265289 0.16170196 0.007495069 -0.08887911 0.004993813 -0.024129072 -0.030789066 -0.019377984
-0.13508977 -0.060468268 -0.19791545 -0.13045281 0.0155546935 0.13318093 -0.01063466 0.15754779
-0.1756712 0.05721712 0.037150178 -0.09485142 0.08757334 -0.1433294 -0.0041886456 0.049187176
-0.114217326 -0.16190723 0.11248428 -0.19000065 0.17451456 -0.10275884 -0.065713294 -0.14048101
-0.00789069 0.12313787 0.036488496 -0.14209718 -0.09291723 0.072495736 -0.024463395 -0.044484288
-0.15968093 0.1687096 -0.11886391 0.0396315 0.03239075 -0.0996185 0.16348085 0.0872883
-0.052112963 0.22212493 0.13874996 0.07975759 -0.093077086 -0.14258444 0.019464001 0.09269313
-0.19068936 0.18672968 0.01203369 0.059303828 -0.122951984 -0.08449775 -0.053105026 -0.09534063
0.1068775 0.22289482 0.0749517 0.011555236 0.08135742 -0.066874474 0.120262414 -0.14890555
0.17213987 -0.10952885 -0.10334361 -0.1691425 -0.04234908 0.1659195 0.04278632 -0.10121321
00000000: db37 643e cc60 19be 6221 463d 9924 653e
00000010: 6699 7a3e b310 71bc 3a3e 1c3e b10d f93d
00000020: 0a5d 2e3e e501 6c3c 134b b9bc adde 9bbd
00000030: 5ecb 0b3d 3a30 8c3d 1cb5 9cbd 6feb 27be
00000040: f9b3 3a3e 4b09 ffbd 35a0 b2bc c2fd d9bd
00000050: 2fcd 71bd 2020 58be 6242 d6bd 2203 723d
00000060: a38c 043e 6b76 3d3e 9def 99bd 59a8 04be
00000070: 62fe 39be 8d50 a3bd d8c3 31be 52de 06be
00000080: b46d 8ebd 1e70 4f3e 7ac6 03be f3bb 18be
00000090: c555 49bd 9aa9 013e 6a61 a4bc 0758 e5bb
000000a0: 634c 0c3e a197 f13d ac2b 293e 9cf2 f4bd
000000b0: 1af2 1e3e c0c8 44be c782 08be 34a9 75bb
000000c0: 465e 2b3e c768 3b3d ebc0 7c3e 4f37 573d
000000d0: e025 3fbd 028d 8b3d 5d9b b63c 09a5 f43d
000000e0: 54da 293e 0ffb d6bd 40db 883d 5605 653e
000000f0: 75d4 1d3d 0343 f23d c0c2 cebc 53e8 863e
00000100: 1511 523d bc88 2f3e 0a23 dabc c430 22be
00000110: 050c 7abd 1d5d 233e c308 023d a4bd 2fbd
00000120: af57 213e fdab 16be 92d9 23be 77d4 703d
00000130: 69d4 433e 866e 6f3d 6f20 c4bd bc76 a93d
00000140: e689 9a3d 135f 52be ffe3 243e 4172 5439
00000150: fd45 babd 2b94 64be b4fe 8f3c a5d2 76bd
00000160: ec95 1d3d 9300 38be f60e 733d 52bc 39be
00000170: 0598 133e edc8 7cbc 47e4 8c3d a289 a63d
00000180: 584f 3d3e 9a87 b23c bd47 143e 6df5 3ebe
00000190: 44a0 013e 5fd0 2c3e 9c49 fcbd b323 b9bd
000001a0: 053a 2a3e 6f07 263e 4b36 34be 11c2 313c
000001b0: 5f9b fabd ef2b db3d f335 35be 7d94 99bd
000001c0: 9bfe 3b3e b44e 3a3e fdf6 3e3e 5bcf 843c
000001d0: 2fcb 36be 0888 f33d 1722 2a3e e345 023e
000001e0: 526a 0e3e 407d 96bb 1d3f 013e 8874 743d
000001f0: 60c2 81bd 41d1 123e b1eb 75bd 08c5 f53d
00000200: 7aec 36bc 67ef 09bc 2b1e d23d 0ac8 b8bc
00000210: b68f a93d 1586 31be 13ee 46be 872a af3c
00000220: 325b 4cbd 3ce8 babd 9cff 3fbe 58d6 593c
00000230: d34e e0bd b270 343e 1c87 28be 8a72 a2bd
00000240: 71c3 b9bc 811a 633d 8e1f 20be 04a6 083e
00000250: 833b 1ebe db2d bcbd c1e5 913d 49ab 5cbc
00000260: 3082 3c3d e0aa 34be cb07 dfbd 17af 233e
00000270: 94ae bf3d 667c eb3d 595a 0f3e 30a9 1c3e
00000280: 5145 da3d 54af 4ebd dbe7 c1bd 2135 05be
00000290: 8f00 863d 6825 b33b 00ce bfbd 2516 093e
000002a0: 6869 aa3c fa8a 1cbc e2b8 fbbc 238d 07be
000002b0: 945c 493e 60c8 3fbe f324 2ebe 5d4b 4c3d
000002c0: eb45 a9bd 3395 253e 3299 f53b 4006 b6bd
000002d0: 24a3 a33b 55aa c5bc 5a39 fcbc 94be 9ebc
000002e0: f954 0abe 93ad 77bd 59aa 4abe 6c95 05be
000002f0: 1dd9 7e3c 9560 083e ff3c 2ebc 3554 213e
00000300: 27e3 33be 805c 6a3d c92a 183d 7641 c2bd
00000310: a759 b33d f1c4 12be e840 89bb 7e78 493d
00000320: c6ea e9bd 02cb 25be 285e e63d 888f 42be
00000330: f2b3 323e 3a73 d2bd b194 86bd 41da 0fbe
00000340: f447 01bc b52f fc3d f674 153d ec81 11be
00000350: 644b bebd a578 943d 7567 c8bc 2835 36bd
00000360: 6683 23be 36c2 2c3e ec6e f3bd a454 223d
00000370: 2aac 043d c904 ccbd 8667 273e 35c4 b23d
00000380: 6774 55bd b874 633e 7814 0e3e f357 a33d
00000390: 339f bebd a801 12be f872 9f3c e5d5 bd3d
000003a0: 1244 43be 1136 3f3e f428 453c 92e8 723d
000003b0: 40ce fbbd 280d adbd a884 59bd f341 c3bd
000003c0: 97e2 da3d 8a3e 643e 4780 993d 2c52 3d3c
000003d0: b89e a63d 7cf5 88bd 244c f63d b27a 18be
000003e0: 6f45 303e a950 e0bd d1a5 d3bd b133 2dbe
000003f0: 3b76 2dbd cde6 293e b540 2f3d df48 cfbd

pdm_blocks.0.mixing_multi_scale_trend.up_sampling_layers.1.0.bias f4 [48]
-0.0056692464 0.103599146 0.0052798595 -0.24043924 0.027802467 0.036063723 0.1506436 -0.019970685
-0.1591898 0.036554392 -0.1182676 -0.18028143 0.017832614 0.16014893 -0.21188925 -0.07303752
-0.17456599 -0.042050865 0.08224029 0.12926707 -0.05423413 0.16875447 0.099875934 0.15372741
-0.14934379 0.06536303 -0.14702436 0.17445153 0.15174441 -0.1636221 -0.007882017 -0.063516535
-0.06416394 0.15172175 0.11052524 -0.18688229 0.13955772 0.03998676 0.08015926 0.08597682
-0.05098041 -0.1065133 0.045432728 -0.06006495 0.055761937 -0.027673358 0.19408844 0.044676214
00000000: 16c5 b9bb ca2b d43d ac02 ad3b b435 76be
00000010: 00c2 e33c 8eb7 133d 5142 1a3e 9099 a3bc
00000020: a702 23be 0fba 153d 4936 f2bd b29b 38be
00000030: b415 923c 15fe 233e 7ff9 58be b294 95bd
00000040: 6dc1 32be 873d 2cbd 996d a83d 965e 043e
00000050: 9b24 5ebd f9cd 2c3e c18b cc3d b86a 1d3e
00000060: 94ed 18be 0ddd 853d 8e8d 16be 6ca3 323e
00000070: e362 1b3e 8d8c 27be 9323 01bc f514 82bd
00000080: 6268 83bd f25c 1b3e 0f5b e23d 125e 3fbe
00000090: 38e8 0e3e 28c9 233d 8a2a a43d 9d14 b03d
000000a0: d6d0 50bd a523 dabd ab17 3a3d aa06 76bd
000000b0: a166 643d 3db3 e2bc 1fbf 463e 68fe 363d
